saved_model/best_symptom_net.pth (torch, 47351 bytes, 4 tensors)

layer1.weight f4 [64, 132]
0	0xbdd5686b	-0.10420307
1	0x3db4278b	0.08796605
2	0xbd12b37d	-0.035815705
3	0x3d98dc04	0.0746384
4	0xbdb91133	-0.090364836
5	0x3bd82500	0.0065962076
6	0x3e02aa1e	0.12760207
7	0x3db3b4b0	0.08774698
8	0x3de8b5be	0.113627896
9	0xbc3d22cf	-0.011543944
10	0x3def610e	0.116884336
11	0xbd5a96c4	-0.053366438
12	0xbd8d72ce	-0.06906663
13	0xbd1bca0f	-0.038034495
14	0x3d83268b	0.06403836
15	0xbc38d594	-0.01128139
16	0xbcd1732d	-0.025567615
17	0x3d9d0249	0.076664515
18	0x3dd868cd	0.10566864
19	0xbd166011	-0.03671271
20	0xbda9a3ea	-0.08283217
21	0xbcd976e4	-0.02654595
22	0x3d6dc8f8	0.058052987
23	0xbaf2d000	-0.0018525124
24	0xbbfee502	-0.0077787647
25	0x3dc46a33	0.095905684
26	0x3c0ab9bd	0.008467135
27	0xbc9074a6	-0.017633747
28	0xbe06bcf2	-0.13158014
29	0xbcb393ad	-0.021921003
30	0xbd99b991	-0.07506097
31	0x3cb2e557	0.021837873
32	0xbd0787d5	-0.033088524
33	0xbcfc80e0	-0.030823171
34	0xbd63164f	-0.055441197
35	0xbd3cdd0e	-0.04610925
36	0xbd6ecec8	-0.05830267
37	0x3cf21603	0.029551512
38	0x3dcb347a	0.099221185
39	0x3d99399a	0.0748169
40	0x3b95fe34	0.0045774225
41	0x3d80b10a	0.062837675
42	0xbd4084b7	-0.047001567
43	0xbb287d9a	-0.002570963
44	0xbc5e75e8	-0.013577916
45	0x3c1d7308	0.009609945
46	0x3dbd82e2	0.092534795
47	0x3b59f7e8	0.0033259336
48	0xbd49c954	-0.049264267
49	0x3b9ce85b	0.004788441
50	0x3da230ec	0.07919487
51	0x3e29bdee	0.16576359
52	0x3de69812	0.11259474
53	0x3e232f4d	0.15936013
54	0x3e10760b	0.1410753
55	0x3b1f98ee	0.0024352628
56	0x3df7a12c	0.12091288
57	0xbb95523b	-0.004556922
58	0xbd4e5765	-0.050376315
59	0x3e1a1894	0.15048438
60	0x3dd138fc	0.10215947
61	0x3c1c7834	0.009550143
62	0x3dc998e5	0.098436154
63	0x3e06143b	0.13093655
64	0x3e2978d3	0.16549997
65	0xbb7f3854	-0.0038943486
66	0x3b562976	0.0032678521
67	0xbdd3bb2e	-0.10338436
68	0xbd4b08ac	-0.049568817
69	0xbc8c7e72	-0.017150138
70	0x3e154693	0.14577703
71	0x3e06ad8a	0.13152137
72	0x3deff31a	0.1171629
73	0x3d96999d	0.07353518
74	0xbd09c380	-0.03363371
75	0x3dbfcbdf	0.09365057
76	0xba269140	-0.00063540414
77	0x3cc84e3f	0.024451373
78	0x3da9d93b	0.082933865
79	0x3d8333be	0.064063534
80	0x3cfaa4bb	0.030596128
81	0xbdca0376	-0.09863941
82	0x3d81ca2d	0.0633739
83	0xbd96fb5a	-0.0737216
84	0xbc7d76ee	-0.01547025
85	0x3e246796	0.1605514
86	0xbded0ea5	-0.11575059
87	0xbdaeca30	-0.08534658
88	0x3c9a8030	0.018859953
89	0x3d082cc1	0.033245806
90	0x3d1c463e	0.038152926
91	0xbd8f2cd2	-0.06990971
92	0xbd175edf	-0.03695571
93	0x3d0dbce4	0.03460397
94	0x3e18164a	0.14852253
95	0x3d2a9272	0.041643567
96	0x3d9f5789	0.07780368
97	0x3dca973f	0.09892129
98	0xbda19d98	-0.07891387
99	0xbe127a44	-0.14304453
100	0x3c06fb51	0.008238629
101	0xbc5d0d06	-0.013491875
102	0xbd97f6c9	-0.074201174
103	0xbd40c60a	-0.047063865
104	0xbd2e614b	-0.042573255
105	0x3cc0f9ef	0.023556678
106	0xbd47f7c2	-0.048820265
107	0xbe068e14	-0.13140136
108	0x3db076f7	0.08616441
109	0x3a91edab	0.0011133453
110	0xbddd7777	-0.10813802
111	0x3d3e5c31	0.04647464
112	0xbac9454d	-0.0015355736
113	0x3d2803fc	0.041019425
114	0xbd292390	-0.04129368
115	0x3dd3ba69	0.10338289
116	0x3d4636ee	0.04839223
117	0x3e210f1d	0.15728422
118	0xbd82dfc9	-0.0639034
119	0x3d2e0096	0.042481028
120	0xbd0a5e7e	-0.03378152
121	0x3c9a7386	0.018853914
122	0xbdd72258	-0.105045974
123	0xbd84f6c4	-0.06492379
124	0x3d07ec57	0.033184376
125	0x3dabca8e	0.083882436
126	0x3b179f6a	0.002313579
127	0x3e098a4b	0.13431661
128	0x3ce5f0dd	0.028068954
129	0x3c7da02b	0.015480082
130	0x3dcb265e	0.09919427
131	0x3e01d554	0.12679034
132	0x3dc8e6c5	0.09809641
133	0xbc5536ff	-0.0130136
134	0xbd84eb96	-0.06490247
135	0x3d433cf7	0.047665562
136	0xbcdf6d87	-0.027273906
137	0xbc08800a	-0.008331308
138	0x3e0be39f	0.1366105
139	0xbdd078cc	-0.1017929
140	0xbdd09db9	-0.10186333
141	0x3ce2cf7a	0.027686823
142	0x3baf2532	0.00534501
143	0x3e098390	0.13429093
144	0x3ba00339	0.0048831967
145	0x3ca27aec	0.019834004
146	0x3ce72e1e	0.028220233
147	0x3d82a3dc	0.0637891
148	0x3d592155	0.053010304
149	0x3d7c74e4	0.061634913
150	0xbd1b5fb5	-0.03793307
151	0x3da13812	0.07872023
152	0xbdaa4b4b	-0.08315142
153	0xbd99c983	-0.075091384
154	0xbbf1ca72	-0.0073788697
155	0x3d5d40f3	0.05401702
156	0xbca99263	-0.020699685
157	0x392e1022	0.00016599943
158	0xbcb9b52f	-0.022669403
159	0xbded0c83	-0.11574652
160	0xbd92aed2	-0.071622506
161	0x3cc5ffef	0.02416989
162	0xbda9306b	-0.08261188
163	0xbd4e7796	-0.050407015
164	0x3db1c872	0.0868081
165	0x3e0d99c6	0.13828191
166	0xbc43f7c7	-0.01196093
167	0x3bef0dab	0.0072953305
168	0x3cde53ff	0.027139662
169	0xbc8b823f	-0.01702988
170	0xbcbe3cf2	-0.02322242
171	0x3e16f7c7	0.14742957
172	0xbd93193c	-0.071825475
173	0x3d247c61	0.04015768
174	0x3d817251	0.06320632
175	0x3e0f13ad	0.1397235
176	0x3d8a750b	0.067606054
177	0xbd294dbc	-0.0413339
178	0x3ceb9793	0.0287588
179	0xbdcaf20f	-0.0990945
180	0x3cc0efc0	0.023551822
181	0x3cdd6429	0.0270253
182	0xbd65bf25	-0.056090493
183	0x3aebe808	0.0017998228
184	0x3d2d9351	0.04237682
185	0x3c1d5918	0.009603761
186	0x3d30985b	0.043114047
187	0xbd64ca46	-0.055856965
188	0x3d861845	0.06547598
189	0x3df7d55f	0.12101244
190	0x3d4cc31a	0.04999075
191	0xbd8fcfc8	-0.07022053
192	0xbd416b99	-0.047221754
193	0xbd803a1b	-0.06261083
194	0x3d59e95a	0.053201057
195	0x3deb949c	0.11502954
196	0x3e1a9434	0.15095598
197	0xbd38e817	-0.045143213
198	0x3d1b43bd	0.037906397
199	0x3b45d2ab	0.0030185382
200	0xbd9e23ff	-0.077217095
201	0xbd5999ee	-0.053125314
202	0xbdab0b36	-0.08351748
203	0xb9e2893c	-0.00043208327
204	0xbade1631	-0.0016943869
205	0xbd22c53a	-0.03973887
206	0xbd904bcd	-0.07045708
207	0x3ddeda8d	0.10881529
208	0x3c7b2f7c	0.015331145
209	0x3d9ee394	0.07758251
210	0x3e016a2e	0.1263816
211	0x3c39ac0c	0.011332523
212	0xbd14f581	-0.036366943
213	0xbccf8408	-0.025331512
214	0x3e0092bc	0.12555975
215	0xbccb6ee0	-0.024833143
216	0xbda83863	-0.0821388
217	0x3e18c747	0.14919768
218	0xbdd34487	-0.10315805
219	0xbd1d8888	-0.038460284
220	0x3cb20c7a	0.021734465
221	0xbc9f7189	-0.019463317
222	0xbd8dfc9b	-0.06932946
223	0xbdaf3090	-0.085541844
224	0xbdd486bb	-0.1037726
225	0xbdaacebb	-0.08340212
226	0x3d2d51c3	0.042314302
227	0xbbadebf1	-0.0053076674
228	0xbdc16394	-0.09442821
229	0xbce1a964	-0.027546592
230	0xbda17057	-0.07882755
231	0xbdf9b244	-0.121922046
232	0x3dd90404	0.10596469
233	0xbd78eb20	-0.060771108
234	0x3bc4d10c	0.0060063656
235	0xbc0ee7d9	-0.008722269
236	0xbceac040	-0.028656125
237	0x3b6a1078	0.0035715383
238	0xbd99b7a6	-0.07505731
239	0xbcd3442b	-0.025789341
240	0xbd85eb78	-0.06539053
241	0x3dd37a0a	0.103260115
242	0x3d729be8	0.059230715
243	0x3c9d581d	0.019207055
244	0x3da813e4	0.08206919
245	0x3be438c2	0.006964774
246	0x3e03afbe	0.12860009
247	0x3bba2953	0.0056811958
248	0x3d7c95f0	0.06166643
249	0x3e1c4e9e	0.15264365
250	0x3d1ebd23	0.038754594
251	0xbdae71a1	-0.08517767
252	0xbd92c8cd	-0.07167206
253	0x3e037722	0.12838414
254	0xbd9703ad	-0.07373748
255	0x3d10ce82	0.03535319

layer1.bias f4 [64]
0	0x3d681030	0.056656063
1	0xbc1e00f0	-0.009643778
2	0x3d9d6194	0.07684627
3	0x3d3b74d5	0.045765717
4	0x3e1e1374	0.15437108
5	0x3dbd53fa	0.09244533
6	0x3be22c95	0.0069022872
7	0x3d20a0bc	0.03921579
8	0x3dbc26d8	0.09187096
9	0x3b9504e7	0.0045477035
10	0x3d92e04a	0.07171686
11	0x3e384d6a	0.17998281
12	0x3dfc5e07	0.12322622
13	0x3d92c84c	0.0716711
14	0x3d88fc4d	0.066887476
15	0x3d8968cc	0.067094415
16	0x3d7ca06e	0.061676435
17	0x3dd8fea2	0.10595442
18	0x3dc722c1	0.09723426
19	0x3d8b8688	0.06812769
20	0x3dc205ed	0.094737865
21	0x3e172176	0.14758858
22	0x3cddc884	0.027073152
23	0x3e1c15ea	0.15242735
24	0x3d16a392	0.036777087
25	0x3d80f926	0.06297521
26	0x3e0f0a84	0.13968855
27	0x3dffc2a3	0.12488296
28	0x3d95f0dc	0.07321331
29	0x3e073f68	0.13207781
30	0x3c169e37	0.009192995
31	0x3d98d50a	0.07462509
32	0x3d9c015c	0.07617447
33	0x3e0d7041	0.13812353
34	0x3d9a7a99	0.07542915
35	0x3d5e52de	0.054278247
36	0x3e0df5ea	0.1386334
37	0x3d9b03b8	0.07569069
38	0x3db5bb82	0.08873655
39	0x3b95fded	0.0045773895
40	0x3ce0b63d	0.027430648
41	0x3deaaadf	0.11458372
42	0x3d33b0db	0.043869834
43	0x3dbdc13f	0.092653744
44	0x3e167998	0.14694822
45	0x3dd2b2c1	0.10288001
46	0x3e3721ef	0.17884038
47	0x3d72f6fb	0.05931757
48	0x3dbaebb8	0.09126991
49	0x3e082237	0.13294302
50	0x3db99dad	0.090632774
51	0x3de68a46	0.11256842
52	0x3d8222cd	0.06354294
53	0x3e09ff80	0.13476372
54	0x3da5b539	0.08091206
55	0x3e178463	0.14796595
56	0x3db98a47	0.090595774
57	0x3e0129c6	0.12613592
58	0x3ceeaa3d	0.02913391
59	0x3cd242d7	0.025666637
60	0x3db40897	0.08790701
61	0x3cdf5962	0.0272643
62	0x3db5732e	0.088598594
63	0x3d7ca127	0.061677124

layer2.weight f4 [41, 64]
0	0xbe234330	-0.15943599
1	0xbe44402f	-0.19165109
2	0xbe5eb22b	-0.21747653
3	0xbe209421	-0.15681507
4	0xbe359a94	-0.17734748
5	0x3de6de95	0.11272923
6	0xbe122eac	-0.14275616
7	0xbdb0d4ec	-0.086343616
8	0x3e0ed784	0.139494
9	0xbdf7cbc8	-0.12099415
10	0xbde2e4ac	-0.11078772
11	0x3dffe09c	0.12494013
12	0xbe0cf111	-0.13763835
13	0xbe34a557	-0.17641197
14	0xbc131b92	-0.008978741
15	0xbe1df1e8	-0.15424311
16	0xbcc790d3	-0.02436105
17	0x3dabb395	0.08383862
18	0x3da772de	0.08176206
19	0xbe2f749e	-0.1713433
20	0x3d3f5131	0.04670829
21	0xbe0da5a7	-0.13832723
22	0xbe526f6c	-0.20550317
23	0x3e0f70cb	0.14007871
24	0xbe18b6b4	-0.14913446
25	0xbe1451a7	-0.14484273
26	0x3dd392f7	0.10330766
27	0x3d66cca6	0.05634751
28	0xbc98e84b	-0.018665453
29	0xbe161a9e	-0.14658591
30	0xbdeb3464	-0.11484602
31	0x3e0a0a06	0.13480386
32	0xbdfe58c8	-0.124192774
33	0xbe5b443e	-0.21412751
34	0x3d1f48af	0.038887676
35	0xbe7456ee	-0.23861286
36	0x3e3aca68	0.18241274
37	0x3dc2e5c8	0.095164835
38	0xbe498563	-0.19679789
39	0xbe0bf04a	-0.13665882
40	0xbe1301fa	-0.14356223
41	0xbe79c1db	-0.24390356
42	0xbe007d80	-0.12547874
43	0xbdc0d323	-0.09415271
44	0x3dd31fd6	0.103088066
45	0xbc485c26	-0.012229001
46	0xbe039e66	-0.12853393
47	0x3b8afe60	0.0042417496
48	0xbcb21efa	-0.021743286
49	0x3d3b4a98	0.045725435
50	0x3be4de67	0.0069845202
51	0xbe1b8c0b	-0.15190141
52	0xbe707007	-0.23480235
53	0x3e15949c	0.14607471
54	0x3e0b9a96	0.13633189
55	0x3d0da794	0.034583643
56	0xbe0a9386	-0.13532838
57	0xbe65d207	-0.224434
58	0x3dea4121	0.114382036
59	0xbda06e2f	-0.07833516
60	0xbc590b73	-0.013247359
61	0xbe00d719	-0.12582053
62	0x3c8e6aba	0.017384876
63	0xbe81e1de	-0.25367635
64	0x3da6272e	0.08112942
65	0xbd9d9881	-0.076951034
66	0x3e001da8	0.12511313
67	0xbe470298	-0.19434583
68	0xbe522c43	-0.20524697
69	0xbddd28b9	-0.10798783
70	0xbe14258f	-0.14467452
71	0xbe858bdc	-0.26083267
72	0x3cacdb6e	0.021100726
73	0x3d01e16b	0.031709116
74	0xbd684fd8	-0.05671677
75	0xbdf063a7	-0.11737757
76	0xbd77205e	-0.060333602
77	0xbe47353a	-0.19453898
78	0xbe778139	-0.24170388
79	0xbe75a47f	-0.23988532
80	0x3d00c987	0.03144219
81	0x3dd9ad8a	0.10628803
82	0xbe68cf9d	-0.22735448
83	0x3e304b62	0.17216256
84	0xbe8a2f83	-0.26989374
85	0xbd9f2cd1	-0.0777222
86	0xbe533055	-0.20623906
87	0xbe314dcf	-0.17314838
88	0xbdc4172b	-0.095747314
89	0xbdbe4ca6	-0.09291963
90	0x3d5a2911	0.05326182
91	0xbcf12141	-0.029434802
92	0x3b8ebc12	0.004355916
93	0x3dbcd4df	0.092202894
94	0xbe2ba8c9	-0.16763605
95	0x3d21d3ce	0.039508633
96	0xbe135850	-0.14389157
97	0x3d2792b3	0.040911388
98	0xbe00d659	-0.12581767
99	0xbe48e0a7	-0.19616948
100	0x3ddfe5ff	0.1093254
101	0xbdeb9f4c	-0.11504993
102	0xbc87752a	-0.01653536
103	0xbd6ca9c0	-0.057779074
104	0x3ccbd2d1	0.024880799
105	0x3e030b9f	0.12797402
106	0x3da9f39a	0.082984164
107	0xbe6778af	-0.22604631
108	0xbdf88057	-0.12133854
109	0x3d9cbe48	0.07653481
110	0xbdb696cd	-0.08915482
111	0xbe4240e6	-0.1897007
112	0xbe7ee35b	-0.24891417
113	0x3e17e883	0.1483479
114	0xbe3dbec0	-0.18529797
115	0xbe21d1b1	-0.15802647
116	0x3d17a9f5	0.037027318
117	0x3e252f0e	0.16131231
118	0x3d44946e	0.047993116
119	0x3ccc8a22	0.02496821
120	0xbe4d0a7f	-0.20023535
121	0x3e220c71	0.15825059
122	0xbdd13328	-0.102148354
123	0x3dad2349	0.08453996
124	0xbd9dd59e	-0.0770676
125	0x3d999c70	0.07500541
126	0xbe3db97f	-0.18527792
127	0xbd191d60	-0.03738153
128	0xbe2b1440	-0.16706944
129	0xbe6074a7	-0.219195
130	0x3dd2874a	0.102797106
131	0xbc4aa2d1	-0.01236792
132	0x3d7c4759	0.06159148
133	0xbe2d331d	-0.1691403
134	0xbdc21d30	-0.09478223
135	0xbe24c25d	-0.16089769
136	0x3d6dba2b	0.05803887
137	0xbe717b97	-0.23582302
138	0xbe8125a2	-0.25224024
139	0x3d06a330	0.03287047
140	0xbda6a871	-0.081375964
141	0x3d81dd93	0.0634109
142	0xbe62c88d	-0.22146817
143	0xbd6ab2fd	-0.057299603
144	0x3e340f93	0.17584066
145	0xbe295428	-0.1653601
146	0x3d7b0250	0.061281502
147	0x3dfd9a3c	0.123829335
148	0x3dda81f2	0.10669316
149	0x3d15fb53	0.036616635
150	0xbe83bd2a	-0.25730258
151	0xbe78c2cc	-0.24293059
152	0xbe27d550	-0.16389966
153	0xbe1001f6	-0.14063248
154	0xbe57895c	-0.21048492
155	0x3ddca7ba	0.10774179
156	0xbda43f00	-0.08019829
157	0xbe5ddc2f	-0.21666025
158	0x3ce149ab	0.027500948
159	0xbe26c7d9	-0.16287173
160	0xbd2ad43e	-0.041706316
161	0x3de04c74	0.10952082
162	0xbe73c4d8	-0.23805559
163	0xbcd8865a	-0.026431251
164	0x3d9ec7f5	0.077529825
165	0xbd4dd540	-0.0502522
166	0xbcfc7740	-0.030818582
167	0xbe028fe3	-0.12750201
168	0xbe324e4c	-0.1741268
169	0x3e1cbf44	0.15307337
170	0xbc496a2e	-0.012293382
171	0x3dce055c	0.10059616
172	0xbe194d60	-0.14970922
173	0x3db3ca69	0.08778841
174	0xbc038851	-0.008028106
175	0xbe829308	-0.255028
176	0x3cc30065	0.023803899
177	0xbdc0e019	-0.09417743
178	0xbe450c51	-0.1924298
179	0xbd31df86	-0.04342606
180	0xbe4dd13a	-0.20099345
181	0x3d926d43	0.07149746
182	0xbbf02f64	-0.007329868
183	0xbdc27bee	-0.09496294
184	0xbe2259eb	-0.15854613
185	0x3e1bbdfc	0.15209192
186	0xbbfab7a7	-0.0076512876
187	0xbe018834	-0.12649614
188	0x3d705e51	0.058683697
189	0xbe83d7ac	-0.25750482
190	0xbde9b75c	-0.11411926
191	0x3c91c553	0.017794287
192	0x3ccaa684	0.024737604
193	0x3d94738d	0.07248602
194	0xbe835221	-0.25648597
195	0xbd810deb	-0.06301483
196	0xbd9eaa3b	-0.07747313
197	0xbc8f9675	-0.017527798
198	0xbe222120	-0.15832949
199	0xbd9fa272	-0.07794656
200	0xbe749f7f	-0.23888968
201	0xbe19050c	-0.14943331
202	0xbc319a66	-0.010840034
203	0x3dba946c	0.091103405
204	0x3d408e09	0.047010455
205	0x3d9c2861	0.07624889
206	0x3d9aa186	0.075503394
207	0xbb915c2e	-0.0044360375
208	0x3de4a88b	0.111649595
209	0xbe55dd95	-0.20885308
210	0xbe083c14	-0.13304168
211	0xbd46470a	-0.048407592
212	0x3e329de5	0.17443044
213	0xbe246acd	-0.16056366
214	0x3e1cadc9	0.15300669
215	0xbd8b9411	-0.06815351
216	0xbe31d65f	-0.17366932
217	0xbce2aaa6	-0.027669262
218	0x3d927f2d	0.07153163
219	0xbe336cfc	-0.17522043
220	0x3df54055	0.11975161
221	0xbdf25655	-0.11832873
222	0xbe195641	-0.1497431
223	0x3e269c81	0.16270639
224	0xbe078beb	-0.13236968
225	0x3de99403	0.11405184
226	0x3d44792c	0.04796712
227	0xbe7038d5	-0.2345918
228	0x3d16fad1	0.03686029
229	0xbd7112df	-0.058855888
230	0xbe209d5e	-0.15685031
231	0xbe31ba3e	-0.17356202
232	0xbe542863	-0.20718531
233	0xbe34c5bd	-0.17653556
234	0x3d9b1eeb	0.075742565
235	0xbe1f8955	-0.15579732
236	0x3ddb938a	0.107215
237	0xbe4ea9c4	-0.20181948
238	0xbe668440	-0.22511387
239	0x3da60ea3	0.081082605
240	0xbe64b00c	-0.22332782
241	0xbe0ad948	-0.13559449
242	0xbe0cfd10	-0.1376841
243	0x3dd149f4	0.102191836
244	0xbe0b87fa	-0.1362609
245	0xbe1a806e	-0.15088055
246	0xbe6b2814	-0.22964507
247	0xbe6174bc	-0.22017187
248	0x3e25ee9b	0.16204302
249	0x3ae3f0e2	0.0017390514
250	0xbe4335ac	-0.19063443
251	0xbe15a8a4	-0.14615113
252	0xbe6f7d74	-0.233877
253	0xbe2612dd	-0.16218133
254	0xbe3e617c	-0.18591875
255	0xbe40897c	-0.18802446

layer2.bias f4 [41]
0	0x3da0c851	0.07850707
1	0xbd0920e4	-0.033478633
2	0x3d7e55af	0.062093433
3	0xbcfd588c	-0.030926012
4	0x3d7d6c19	0.061870668
5	0x3d98e45d	0.07465432
6	0xbd76588a	-0.06014303
7	0xbdf54eb1	-0.119779
8	0xbbc0ea16	-0.00588728
9	0xbdd432ac	-0.103612274
10	0x3d598148	0.053101808
11	0xbd9fe4f6	-0.07807343
12	0xbdb11da0	-0.08648229
13	0x3c106f4f	0.008815601
14	0x3dd84364	0.10559729
15	0x3d6cb9b4	0.057794288
16	0x3d82bad1	0.06383289
17	0x3da9afc6	0.08285479
18	0xbb88634e	-0.0041622287
19	0x3cda4b5b	0.02664726
20	0xbd716804	-0.058937088
21	0x3d96bc40	0.073601246
22	0x3ca0715d	0.019585306
23	0xbdbcfb58	-0.092276275
24	0x3d9b4811	0.07582105
25	0x3d74de9f	0.05978262
26	0x3c7605ec	0.01501606
27	0x3be490fb	0.006975291
28	0x3d7cdc34	0.06173344
29	0xbdb24a25	-0.08705548
30	0x3dd69480	0.10477543
31	0x3c0c0089	0.0085450495
32	0xbd8074de	-0.06272291
33	0xbcf7e18a	-0.030258913
34	0x3d53a7cd	0.0516737
35	0x3d11419f	0.03546297
36	0x3a010896	0.0004922239
37	0xbd85405a	-0.06506415
38	0x3dd811eb	0.105502926
39	0xbd512888	-0.051064044
40	0xbcfb5438	-0.030679807
