saved_model/symptom_net.pth (torch, 47237 bytes, 4 tensors)

layer1.weight f4 [64, 132]
0.0631661 -0.19731835 -0.12519851 -0.3152688 -0.3238918 0.39098626 0.16477248 -0.29241884
-0.32563758 -0.31184396 -0.25060305 0.16213901 -0.054930456 -0.085175656 0.4491327 0.27271554
-0.2712504 0.21156503 0.4203798 0.53969127 0.22084951 0.057121713 -0.24723403 0.20789808
-0.16297969 0.32629594 0.5689091 0.60566217 0.4835394 0.45048848 -0.25550202 -0.05978894
0.26661903 0.5420341 0.22577181 -0.057461467 0.31787345 0.022915553 0.012670165 0.108056664
0.623778 -0.45087776 0.17766257 0.14390877 0.13124044 -0.02923031 -0.2929382 -0.25352427
-0.047121435 -0.060688633 0.038746297 -0.28825942 -0.2128368 -0.2186583 -0.32463115 -0.19636616
0.4123206 -0.2966914 0.28860685 -0.09361383 -0.08543979 -0.110135555 -0.088860445 -0.53909
0.31290257 0.33433205 0.3119028 0.3640975 0.31661907 0.4006023 0.23620255 0.31574565
0.23257002 0.32779044 0.029920118 -0.27661186 -0.2951642 -0.27312434 -0.30132335 -0.33195093
0.5898864 0.44741288 0.21275876 0.41799545 -0.33145592 0.124509074 -0.37968713 -0.34201086
-0.3317114 -0.02287403 -0.13504143 -0.13976489 -0.27498797 -0.20674066 0.30482385 0.100960046
-0.09864166 0.1202378 -0.3242964 -0.099426456 0.38656673 0.35531443 -0.123252325 -0.28462234
0.27924046 0.16267511 0.18784468 0.34972948 0.329552 0.7349539 -0.19496952 0.25877997
0.159698 0.23815396 0.2669332 -0.30788648 -0.25477067 -0.27907592 0.118674226 0.36769804
-0.25801614 0.18909244 -0.11347638 -0.035933115 -0.09747977 -0.124511175 -0.016785793 -0.13057481
-0.12577501 -0.12460873 -0.19243622 -0.17900106 0.765749 0.18542315 0.39231712 0.4029566
0.4924277 -0.11618557 0.012235849 0.4202795 0.21754009 0.38574585 -0.271562 0.47989064
0.41105187 0.3179452 -0.27519166 -0.0071042203 0.33367047 -0.09150806 -0.12389622 0.096445836
0.18668978 -0.029661482 -0.2723829 0.22826399 0.07224788 0.096776135 -0.39807156 0.20375958
0.25373825 -0.40936896 -0.4424055 0.15560918 0.15730098 -0.14691554 -0.020339524 -0.26129723
0.0008503832 -0.32923588 -0.26161325 0.22192803 -0.49809143 -0.46467227 -0.2576002 -0.061390538
0.4894094 -0.014024033 -0.062191192 -0.39892775 -0.3258503 0.20570168 -0.074176565 -0.14601493
-0.1928013 -0.13443813 -0.14076841 -0.03933755 0.6528729 -0.3323624 0.35062867 -0.14393337
-0.044854667 -0.17315966 -0.03478588 1.8934674e-05 0.035607126 0.190495 0.04239767 0.3199007
0.18503575 0.1582088 -0.037617724 -0.1394642 -0.03863453 -0.056053735 0.18895394 -0.28529423
0.3313938 0.44677892 0.44383955 0.4967153 -0.392477 -0.4118255 0.15882434 -0.29173508
-0.31773043 -0.10681379 -0.28833318 0.6027931 -0.10953447 0.45969042 0.3359535 0.41876033
-0.44351038 -0.4135527 -0.28489178 -0.29682598 -0.033008613 -0.33505484 0.6488999 -0.3393377
-0.2789189 -0.057898123 0.2799603 0.44762367 0.27236545 0.3382852 -0.33089027 -0.23866455
0.5235933 0.5601118 -0.35959068 -0.28892368 -0.20114966 0.5639408 0.5638879 0.021723831
0.00016115292 -0.05022805 -0.32630825 0.0757815 0.44335818 0.13512681 -0.30929908 -0.30785292
00000000: 3a5d 813d d20d 4abe 0a34 00be ea6a a1be
00000010: 25d5 a5be 5a2f c83e 1eba 283e ecb7 95be
00000020: f8b9 a6be 03aa 9fbe 0b4f 80be c507 263e
00000030: c2fe 60bd 9370 aebd b9f4 e53e 5fa1 8b3e
00000040: 55e1 8abe 81a4 583e 053c d73e 3529 0a3f
00000050: 6026 623e 75f8 693d eb2a 7dbe 3ce3 543e
00000060: 26e4 26be 4310 a73e 07a4 113f ad0c 1b3f
00000070: 7a92 f73e 6da6 e63e 29d1 82be 3fe5 74bd
00000080: 4a82 883e bfc2 0a3f ba30 673e b75c 6bbd
00000090: 4fc0 a23e 66b9 bb3c 8696 4f3c d04c dd3d
000000a0: eaaf 1f3f 73d9 e6be 2ded 353e d25c 133e
000000b0: e563 063e 6774 efbc fffb 95be efcd 81be
000000c0: 6802 41bd a594 78bd 70b4 1e3d bd96 93be
000000d0: e4f1 59be f6e7 5fbe 0e36 a6be 3614 49be
000000e0: b01b d33e efe7 97be 47c4 933e 9cb8 bfbd
000000f0: 0efb aebd c08e e1bd 77fc b5bd cd01 0abf
00000100: c434 a03e 922d ab3e b9b1 9f3e fd6a ba3e
00000110: e51b a23e bf1b cd3e 15df 713e 6aa9 a13e
00000120: d626 6e3e 26d4 a73e 091b f53c 12a0 8dbe
00000130: c31f 97be f4d6 8bbe 0e47 9abe 79f5 a9be
00000140: cc02 173f 4d13 e53e 6fdd 593e 8003 d63e
00000150: 97b4 a9be 9dfe fe3d 5a66 c2be 0c1c afbe
00000160: 14d6 a9be 5162 bbbc 4d48 0abe 871e 0fbe
00000170: 39cb 8cbe d3b3 53be df11 9c3e 24c4 ce3d
00000180: a304 cabd 3c3f f63d 2e0a a6be 19a0 cbbd
00000190: 13ec c53e c6eb b53e b76b fcbd 05ba 91be
000001a0: 9bf8 8e3e 4e94 263e 5b5a 403e be0f b33e
000001b0: 0abb a83e f025 3c3f 17a6 47be cf7e 843e
000001c0: df87 233e a2de 733e 78ab 883e 4ca3 9dbe
000001d0: 4d71 82be 0ae3 8ebe 790b f33d eb42 bc3e
000001e0: b11a 84be 73a1 413e 4e66 e8bd 9a2e 13bd
000001f0: 79a3 c7bd b7ff febd 5c82 89bc 67b5 05be
00000200: 2acb 00be dd32 ffbd 000e 45be 0e4c 37be
00000210: 2008 443f 91df 3d3e cadd c83e 5450 ce3e
00000220: 7c1f fc3e b3f2 edbd df78 483c e02e d73e
00000230: d4c2 5e3e 7b80 c53e 2d0a 8bbe 3ab4 f53e
00000240: 6475 d23e b7c9 a23e ece5 8cbe 85ca e8bb
00000250: dbd6 aa3e 9468 bbbd 4dbd fdbd 6585 c53d
00000260: 9b2b 3f3e a3fc f2bc c575 8bbe 09be 693e
00000270: b2f6 933d 9132 c63d 09d0 cbbe 5aa6 503e
00000280: fbe9 813e cf98 d1be f982 e2be 0358 1f3e
00000290: 8213 213e 0771 16be 139f a6bc c0c8 85be
000002a0: 40ec 5e3a 9b91 a8be 2cf2 85be 1a41 633e
000002b0: d705 ffbe 86e9 edbe 2ce4 83be a574 7bbd
000002c0: de93 fa3e 0fc5 65bc 31bc 7ebd 4240 ccbe
000002d0: dad5 a6be 76a3 523e e2e9 97bd f084 15be
000002e0: b46d 45be 26aa 09be 9825 10be 6920 21bd
000002f0: ae22 273f 682b aabe 9a85 b33e 4563 13be
00000300: 87b9 37bd c450 31be a47b 0ebd e7d5 9e37
00000310: c7d8 113d 1f11 433e 2ea9 2d3d 06ca a33e
00000320: 037a 3d3e 7d01 223e 0b15 1abd b4cf 0ebe
00000330: 3e3f 1ebd 9a98 65bd 247d 413e 1612 92be
00000340: 73ac a93e 35c0 e43e f03e e33e 7851 fe3e
00000350: bff2 c8be cbda d2be d9a2 223e 4d5e 95be
00000360: 90ad a2be 30c1 dabd 68a0 93be a650 1a3f
00000370: 9c53 e0bd 8b5c eb3e 1902 ac3e c167 d63e
00000380: cb13 e3be 2ebd d3be 56dd 91be 93f9 97be
00000390: 0a34 07bd 4f8c abbe 4e1e 263f acbd adbe
000003a0: 75ce 8ebe 9526 6dbd f556 8f3e ee2e e53e
000003b0: 7c73 8b3e b833 ad3e 736a a9be 7b64 74be
000003c0: 360a 063f 7d63 0f3f 451c b8be ceed 93be
000003d0: 2dfa 4dbe 6d5e 103f f55a 103f 2df6 b13c
000003e0: 28fb 2839 eebb 4dbd e011 a7be 5533 9b3d
000003f0: d8ff e23e af5e 0a3e 735c 9ebe e69e 9dbe

layer1.bias f4 [64]
0.20625299 0.41162622 0.11705314 0.31667778 0.38180408 0.2499309 0.519723 0.13149235
0.40358 0.35833183 0.31434765 0.3504307 0.45401675 0.3741664 0.40660283 0.3744918
0.3614019 0.19068483 0.49471363 0.4345187 0.29302624 0.31988308 0.36239773 0.50458455
0.37479624 0.393452 0.47397983 0.34799322 0.21776061 0.44654623 0.45895645 0.28583303
0.2000207 0.28109106 0.31638628 0.28733903 0.45245042 0.34476987 0.3760623 0.5036882
0.35834154 0.38172743 0.28476444 0.11424821 0.39118958 0.3041578 0.45742735 0.41116393
0.31423417 0.20723584 0.22557534 0.2849878 0.26973683 0.5068701 0.44125235 0.3892661
0.4111589 0.3409557 0.17971048 0.08808586 0.29139245 0.50563043 0.3569375 0.40793127
00000000: fc33 533e acc0 d23e 8fb9 ef3d 9723 a23e
00000010: d37b c33e e3ed 7f3e 910c 053f eea5 063e
00000020: 0aa2 ce3e 4577 b73e 2df2 a03e a76b b33e
00000030: e274 e83e bd92 bf3e 3f2e d03e 64bd bf3e
00000040: ab09 b93e e242 433e 1b4b fd3e 3c79 de3e
00000050: 8907 963e b7c7 a33e 328c b93e 742c 013f
00000060: 4be5 bf3e 8a72 c93e 7cad f23e 2b2c b23e
00000070: a3fc 5e3e b5a1 e43e 57fc ea3e b558 923e
00000080: 3ad2 4c3e 2beb 8f3e 62fd a13e 1a1e 933e
00000090: 95a7 e73e ad85 b03e 3d8b c03e b6f1 003f
000000a0: 8b78 b73e c771 c33e a5cc 913e f7fa e93d
000000b0: 004a c83e 92ba 9b3e eb33 ea3e 1484 d23e
000000c0: 4de3 a03e a235 543e 39fd 663e ece9 913e
000000d0: f21a 8a3e 3dc2 013f d4eb e13e e34d c73e
000000e0: 6b83 d23e bf91 ae3e 0606 383e 5c66 b43d
000000f0: 6431 953e ff70 013f 83c0 b63e 5edc d03e

layer2.weight f4 [41, 64]
-0.36455306 -0.26061222 0.27857882 -0.72750604 -0.80619603 -0.13542467 0.17930788 -0.68658525
0.2832852 0.22320473 0.19207361 -0.9255894 -0.6440996 0.19438131 -0.763804 -0.7969737
0.119713314 0.26087594 0.28628266 0.31156927 -0.6525138 -0.38197467 0.20811568 0.21461244
0.16405931 -0.7894416 0.23898344 0.02672527 -0.7623589 0.19960664 -0.02538059 0.19159009
-0.6434219 -0.7757145 0.26159984 -0.83892834 -0.7759501 -0.6248839 0.27265918 0.2161501
-0.97082585 -0.793468 -0.6826169 -0.51118654 0.14085636 -0.7506457 -0.82331824 -0.6718333
-0.7917104 0.32973525 -0.5997567 0.22217453 -0.6576349 -0.69174504 0.24897836 -0.7774063
-0.6271199 -0.74477935 0.25499338 -0.6856455 -0.5835976 -0.58571655 -0.7837141 0.22347331
-0.5144984 -0.7606254 -0.7224603 -0.70399976 0.16129239 0.33374634 0.25620234 -0.5780413
-0.6586631 -0.7109765 -0.7086977 -0.1034915 -0.69410574 0.13077918 0.3041093 0.11717698
0.18771616 0.17829244 -0.7656193 -0.7243716 -0.629903 -0.7274676 -0.69784105 0.22159533
0.22790535 -0.7263088 0.2619491 0.16907859 -0.7733496 0.2722667 0.25657025 0.18889408
-0.53798455 0.2539807 0.16316855 -0.81170446 -0.76774704 -0.5291063 -0.7752416 -0.6793797
-0.6333818 -0.6622646 -0.6230255 -0.6202257 0.18960065 -0.6264069 -0.69078666 0.3125615
0.2116837 0.26338238 -0.7447116 0.26129898 -0.59799355 0.2862505 -0.59510523 0.2924807
0.2936519 -0.82714474 -0.6673012 -0.62937385 -0.6095754 -0.5220624 0.2862612 -0.6730005
-0.687458 -0.77490306 -0.77792656 0.20775759 0.18986787 -0.8724112 -0.8234547 -0.71776885
-0.6210232 -0.7591579 -0.69000566 -0.02871589 0.1729221 0.17203753 0.2182298 0.21637985
0.12966155 0.14733042 0.23546967 -0.034232978 -0.59983534 -0.75399077 -0.729892 0.24602501
-0.59600407 0.25524396 0.14037529 -0.8019553 -0.70638704 0.20663834 -0.7067245 -0.7874318
0.279655 -0.74614537 0.18802525 0.22549619 0.13713579 -0.6234918 -0.71131843 0.20635654
0.2587142 0.22813103 -0.7631634 -0.6766429 -0.7996985 -0.6200967 -0.81348723 0.15105157
-0.7596561 -0.5973501 0.20662457 -0.7218988 -0.67630553 0.06929828 -0.76060504 -0.7791146
-0.59716856 0.25980976 0.116089016 0.14139627 -0.79920644 0.14235176 0.23429188 -0.5087552
-0.7200486 0.11679358 -0.7394506 0.18834585 0.13564353 0.28186825 0.19432037 -0.48987278
0.23659734 0.20364657 -0.76057154 0.30268976 0.062148526 -0.7304478 0.15674959 0.2255199
0.13566872 0.1811604 -0.7931734 -0.7902457 -0.7032253 0.1617442 0.3291391 -0.7421907
-0.77387035 0.2316689 -0.7419937 -0.76810306 0.16757177 -0.8063242 -0.49968338 -0.6688574
-0.7248755 -0.7171065 -0.81286603 -0.82551485 -0.67645764 -0.76787597 -0.6527863 -0.8276894
-0.72517836 0.1725476 0.2483626 -0.71987104 -0.618858 -0.56830114 -0.6523597 -0.8154754
0.2472232 0.21050431 -0.5719314 -0.6941347 -0.6024163 0.20346442 0.1719901 0.2613896
-0.60626817 0.13985397 0.20808901 0.14565884 0.21410556 -0.6530819 -0.6842563 0.25197226
00000000: b3a6 babe f76e 85be e2a1 8e3e d63d 3abf
00000010: dd62 4ebf c4ac 0abe 7c9c 373e 0dc4 2fbf
00000020: c20a 913e c88f 643e f2ae 443e 6df3 6cbf
00000030: b6e3 24bf e50b 473e a988 43bf 7806 4cbf
00000040: 412c f53d 8891 853e a493 923e 0286 9f3e
00000050: 250b 27bf 2f92 c3be 471c 553e 5dc3 5b3e
00000060: 2aff 273e d818 4abf 13b8 743e f4ee da3c
00000070: f429 43bf af65 4c3e f5ea cfbc 3130 443e
00000080: 4cb7 24bf 3a95 46bf 6af0 853e 02c4 56bf
00000090: aaa4 46bf 64f8 1fbf fc99 8b3e 7456 5d3e
000000a0: 0b88 78bf b820 4bbf fbbf 2ebf 1fdd 02bf
000000b0: a63c 103e 512a 40bf fcc4 52bf 44fd 2bbf
000000c0: 88ad 4abf 0fd3 a83e a889 19bf b881 633e
000000d0: c35a 28bf 3416 31bf 2ff4 7e3e 1904 47bf
000000e0: ee8a 20bf dca9 3ebf 7e8e 823e 7786 2fbf
000000f0: a766 15bf 85f1 15bf 7da1 48bf 30d6 643e
00000100: 2bb6 03bf 59b8 42bf 29f3 38bf 5439 34bf
00000110: d529 253e cde0 aa3e f42c 833e 84fa 13bf
00000120: 259e 28bf 8e02 36bf 366d 35bf 5af3 d3bd
00000130: eab0 31bf faea 053e 37b4 9b3e 7cfa ef3d
00000140: aa38 403e 4b92 363e a0ff 43bf 6b70 39bf
00000150: 5341 21bf 513b 3abf b6a5 32bf e3e9 623e
00000160: 0560 693e 60ef 39bf 311e 863e f022 2d3e
00000170: 3dfa 45bf 8a66 8b3e 2d5d 833e 736d 413e
00000180: 5bb9 09bf c209 823e a815 273e ddcb 4fbf
00000190: 128b 44bf 8373 07bf 3c76 46bf d4eb 2dbf
000001a0: 4f25 22bf 2c8a 29bf 997e 1fbf 1dc7 1ebf
000001b0: ac26 423e 345c 20bf 65d7 30bf 1008 a03e
000001c0: 9dc3 583e 0eda 863e 6ba5 3ebf fbc8 853e
000001d0: 1b16 19bf 6d8f 923e d158 18bf 08c0 953e
000001e0: 8b59 963e c2bf 53bf 40d4 2abf a51e 21bf
000001f0: 220d 1cbf e2a5 05bf d490 923e c349 2cbf
00000200: 3ffd 2fbf 0c60 46bf 3226 47bf 68be 543e
00000210: b96c 423e 5756 5fbf edcd 52bf b3bf 37bf
00000220: 60fb 1ebf 2c58 42bf 36a4 30bf 963d ebbc
00000230: 7e12 313e 9b2a 303e a277 5f3e ae92 5d3e
00000240: ffc5 043e c9dd 163e f61e 713e e137 0cbd
00000250: cf8e 19bf 8a05 41bf 34da 3abf fbed 7b3e
00000260: b993 18bf 56af 823e 8abe 0f3e f14c 4dbf
00000270: c8d5 34bf 0099 533e e6eb 34bf 2195 49bf
00000280: f12e 8f3e 6203 3fbf b189 403e 79e8 663e
00000290: 536d 0c3e 299d 1fbf f718 36bf 214f 533e
000002a0: 3076 843e 2e9b 693e ad5e 43bf 7838 2dbf
000002b0: 0ab9 4cbf a8be 1ebf b340 50bf 43ad 1a3e
000002c0: d278 42bf f0eb 18bf 6495 533e 5cce 38bf
000002d0: 5c22 2dbf 42ec 8d3d 03b7 42bf 0e74 47bf
000002e0: 0ae0 18bf c905 853e 14c0 ed3d 2fca 103e
000002f0: cb98 4cbf a9c4 113e 36ea 6f3e c83d 02bf
00000300: 1b55 38bf 7931 ef3d a24c 3dbf bcdd 403e
00000310: 23e6 0a3e 0951 903e ebfb 463e 9bd0 fabe
00000320: 9346 723e ba88 503e d1b4 42bf 27fa 9a3e
00000330: 748f 7e3d a1fe 3abf f782 203e b0ee 663e
00000340: beec 0a3e 1d82 393e 690d 4bbf 8b4d 4abf
00000350: 9306 34bf 46a0 253e ec84 a83e 3600 3ebf
00000360: 5e1c 46bf 9d3a 6d3e 4df3 3dbf 67a2 44bf
00000370: ef97 2b3e 436b 4ebf 80d6 ffbe 3d3a 2bbf
00000380: 7191 39bf 4b94 37bf fd17 50bf f154 53bf
00000390: 542c 2dbf 8593 44bf 011d 27bf 74e3 53bf
000003a0: 4aa5 39bf 51b0 303e c452 7e3e 7849 38bf
000003b0: 7a6d 1ebf 2f7c 11bf 0c01 27bf ffc2 50bf
000003c0: 1428 7d3e 718e 573e 196a 12bf d0b2 31bf
000003d0: f437 1abf fa58 503e 2c1e 303e dcd4 853e
000003e0: 6434 1bbf e135 0f3e 4915 553e 9727 153e
000003f0: 7d3e 5b3e 6030 27bf 6c2b 2fbf 8202 813e

layer2.bias f4 [41]
-0.012083061 0.1075972 0.09171582 -0.068946674 0.08253307 0.22563174 0.028689375 0.25774407
-0.17804126 -0.023212843 0.008416137 -0.28565004 0.104014374 0.1356373 -0.15734069 0.123362474
0.13459845 0.05093833 0.20325002 0.027499486 0.024081502 -0.2897107 -0.24965928 -0.14964135
-0.17654423 -0.08683139 -0.09599067 0.031643994 -0.08642517 -0.016253775 0.031594276 -0.078745626
0.2594606 0.0068288087 -0.06778729 0.21848616 -0.39892003 -0.17863727 0.1170119 -0.11445966
-0.16783972
00000000: 08f8 45bc ec5b dc3d 81d5 bb3d ea33 8dbd
00000010: 1907 a93d 020c 673e fb05 eb3c 08f7 833e
00000020: 7350 36be dc28 bebc d6e3 093c b940 92be
00000030: 7d05 d53d 81e4 0a3e eb1d 21be 77a5 fc3d
00000040: 2dd4 093e b6a4 503d c620 503e 9a46 e13c
00000050: 9246 c53c f654 94be afa6 7fbe 953b 19be
00000060: 03c8 34be a8d4 b1bd c296 c4bd 229d 013d
00000070: aeff b0bd a326 85bc 0069 013d 6345 a1bd
00000080: 05d8 843e 33c4 df3b 10d4 8abd d6ba 5f3e
00000090: 3f3f ccbe b0ec 36be efa3 ef3d d469 eabd
000000a0: 2dde 2bbe
